app/src/main/assets/mnist_tflite_model.tflite (tflite, 80428 bytes, 10 tensors)

conv2d_1/Conv2D_bias f4 [28]
0	0xbd99f6d0	-0.07517779
1	0xbdfe1615	-0.124065556
2	0xbbc1b837	-0.0059118527
3	0xbc3c7150	-0.011501625
4	0xbce14911	-0.027500661
5	0xbd0790ef	-0.033097204
6	0xbdc46b3b	-0.09590765
7	0xbd51bd32	-0.05120582
8	0xbca6e8b0	-0.020374626
9	0x3c139050	0.009006575
10	0x3c15f4d9	0.0091526145
11	0xbd1cf8f5	-0.03832336
12	0xbccbf615	-0.024897614
13	0x3e6b76bc	0.22994512
14	0xbd9cc5ea	-0.076549366
15	0x3c809e15	0.01570038
16	0xbe1ec3e0	-0.15504408
17	0xbcad5176	-0.021157008
18	0xbdcfc90b	-0.10145768
19	0xbcc839d8	-0.024441645
20	0xbbe1b7c0	-0.00688836
21	0xbe2c0452	-0.16798523
22	0xbd8e3907	-0.06944471
23	0xbd48350a	-0.048878707
24	0xbd29f47c	-0.041492924
25	0xbce0324b	-0.027367732
26	0xbdbf6422	-0.09345271
27	0xbd808604	-0.062755615

conv2d_1/kernel f4 [1, 3, 3, 28]
0	0xbe70c8fe	-0.23514172
1	0x3da6656f	0.08124816
2	0x3d60a7f3	0.05484767
3	0xbd41e47c	-0.04733704
4	0x3db9550d	0.09049425
5	0xbd15e529	-0.036595497
6	0xbd5bbc95	-0.053646643
7	0xbd8a1c9b	-0.06743737
8	0xbe899436	-0.26870888
9	0x3df9de59	0.122006126
10	0x3d9bc6eb	0.076063
11	0xbe5c41fa	-0.21509543
12	0x3e19036e	0.14942715
13	0xbdf13341	-0.11777354
14	0x3e179c0c	0.14805621
15	0x3e2fe884	0.17178541
16	0xbc9d7403	-0.019220358
17	0x3e0f603e	0.14001557
18	0xbe453640	-0.19258976
19	0xbeaf06cc	-0.34184873
20	0x3e7acb9e	0.24491736
21	0xbda38da4	-0.07986
22	0x3bbf82c0	0.005844444
23	0xbdcc9a90	-0.09990418
24	0xbe2145ce	-0.15749285
25	0x3e153ac7	0.14573203
26	0x3df668a6	0.12031679
27	0x3d8633bc	0.06552836
28	0x3e157803	0.14596562
29	0xbd8f57b9	-0.06999154
30	0xbcc67b2b	-0.024228653
31	0xbd804745	-0.062635936
32	0x3e3b0953	0.18265276
33	0x3cdac887	0.026706947
34	0x3e4fae99	0.20281447
35	0x3d13f69e	0.036123864
36	0xbe7a53ae	-0.24445984
37	0x3d98bfed	0.07458482
38	0xbe911cfa	-0.2834242
39	0x3e62a471	0.22133042
40	0xbd70e812	-0.05881507
41	0xbe02eb97	-0.12785183
42	0x3daebd4e	0.08532201
43	0x3e293be0	0.16526747
44	0xbe4966c9	-0.19668116
45	0x3d6a896a	0.057259955
46	0xbca3240c	-0.01991465
47	0x3dda763a	0.10667081
48	0xbd6a3b76	-0.057185613
49	0xbd819185	-0.06326584
50	0xbe2d40f8	-0.16919315
51	0x3e529a58	0.2056669
52	0x3ddfcd2b	0.109278046
53	0xbce7bfea	-0.028289754
54	0x3e5c8c07	0.21537791
55	0x3ebb8529	0.3662503
56	0x3e80d985	0.25165954
57	0x3df98059	0.121826835
58	0x3c7f3a26	0.0155778285
59	0xbd751f04	-0.059844032
60	0x3e0fc399	0.14039458
61	0xbe0473ff	-0.12934874
62	0xbe028176	-0.12744698
63	0xbb966e4e	-0.004590786
64	0x3dea5f6c	0.114439815
65	0xbe3c0ed4	-0.18365031
66	0xbd427915	-0.047478754
67	0xbd415342	-0.04719854
68	0xbdc234a4	-0.09482697
69	0xbd5578ae	-0.052117042
70	0xbecc59d5	-0.39912286
71	0xbe11b99c	-0.1423096
72	0xbe816eec	-0.2527994
73	0x3e5dd111	0.21661784
74	0x3e34ad4a	0.1764423
75	0x3ee76953	0.45197544
76	0xbdeefa32	-0.11668815
77	0x3e80fe39	0.25193956
78	0xbe50a0dd	-0.20373864
79	0xbcd710f8	-0.026253209
80	0x3e0d8dbb	0.13823597
81	0x3e693d43	0.22777276
82	0x3cbc4675	0.022982815
83	0x3c2191e5	0.009861444
84	0xbd837639	-0.064190336
85	0x3e110c3d	0.14164825
86	0x3e05217f	0.13001059
87	0xbd8fb15e	-0.07016252
88	0xbe5de780	-0.21670341
89	0x3e9e0133	0.3086029
90	0xbe36569c	-0.17806476
91	0xbeb29d38	-0.34885573
92	0x3e27855d	0.16359468
93	0xbe8ea415	-0.2785956
94	0xbe351dff	-0.17687224
95	0x3e0ab8ec	0.13547105
96	0xbe98cdef	-0.29844615
97	0xbdfa0010	-0.12207043
98	0xbe1cfd1e	-0.15330932
99	0x3af38a0d	0.0018580571
100	0x3e8027e7	0.25030443
101	0xbd455aae	-0.048182182
102	0xbe2e1dcb	-0.17003553
103	0xbe1f0a81	-0.1553135
104	0x3e537ec2	0.20653823
105	0xbe839c4a	-0.25705177
106	0x3d5a6186	0.05331566
107	0x3d10bab7	0.035334315
108	0x3e2997f4	0.16561872
109	0xbebabc10	-0.36471605
110	0xbe35f526	-0.17769298
111	0xbdee2574	-0.11628237
112	0x3ea8d4df	0.32974908
113	0xbf1583d2	-0.58404267
114	0xbe1f9507	-0.15584193
115	0x3e9b0ebc	0.3028468
116	0x3ccf404d	0.025299216
117	0xbd20d93f	-0.039269682
118	0x3ec6055b	0.3867596
119	0xbe6cebb8	-0.23136795
120	0x3e86b78d	0.26311913
121	0x3e83a511	0.25711873
122	0xbd08ffaf	-0.033446964
123	0xbbcda410	-0.0062756613
124	0x3ded46d5	0.11585776
125	0xbc522151	-0.012825326
126	0x3ec6d483	0.3883401
127	0xbe70f7df	-0.23532055
128	0x3e2022d0	0.1563828
129	0x3dc12f0d	0.09432802
130	0x3e784c06	0.2424775
131	0xbf15704c	-0.58374476
132	0xbd40d771	-0.04708046
133	0xbde681c2	-0.11255218
134	0xbdd2290c	-0.10261735
135	0xbe36d3ed	-0.17854281
136	0x3e395888	0.18100178
137	0xbd345721	-0.044028405
138	0x3e99f89a	0.3007248
139	0xbeaac535	-0.33353582
140	0xbe9760f6	-0.29566163
141	0x3ecf1af4	0.4045025
142	0xbdb46e25	-0.08810071
143	0x3cb80f45	0.022468219
144	0xbdfa193f	-0.122118466
145	0xbf13ffc2	-0.5781213
146	0xbeb64e2a	-0.3560651
147	0xbea0f657	-0.31437942
148	0x3e98ac92	0.2981916
149	0x3c9ff1d5	0.019524494
150	0x3e8f656e	0.28007072
151	0xbe29358d	-0.16524334
152	0x3e1c0e78	0.15239894
153	0xbd41e599	-0.047338102
154	0x3e643de8	0.2228924
155	0xbe4f2107	-0.20227443
156	0xbd3b46d7	-0.045721855
157	0xbd25cb09	-0.040476833
158	0x3bd23da1	0.006416038
159	0xbe8c2e46	-0.27379054
160	0xbe5abf61	-0.21362068
161	0x3daf7c4d	0.0856863
162	0x3dc8679f	0.09785389
163	0xbcb6093e	-0.022221204
164	0xbe33ba2d	-0.17551489
165	0xbe02ecc4	-0.12785631
166	0x3e734ee0	0.23760557
167	0xbec51095	-0.38489214
168	0x3e0c5f9e	0.1370835
169	0x3dcb7325	0.099340715
170	0xbe687796	-0.22701868
171	0xbb9d9c27	-0.0048098746
172	0xbc0b6bf6	-0.008509627
173	0x3e5a8780	0.21340752
174	0xbe6114be	-0.21980569
175	0x3e5fbc04	0.21849066
176	0x3d8e79ef	0.06956851
177	0x3d1ef1c4	0.038804784
178	0xbe7985dd	-0.24367471
179	0x3dc1b531	0.09458388
180	0x3e112751	0.14175154
181	0xbda09538	-0.07840961
182	0xbe8e847b	-0.2783545
183	0xbe10195a	-0.14072171
184	0xbda472ae	-0.08029686
185	0xbe127444	-0.14302164
186	0x3afb58d0	0.0019176248
187	0x3ea55d46	0.32297724
188	0x3e5a57c6	0.21322545
189	0xba89d574	-0.0010515884
190	0x3de19a6c	0.11015782
191	0x3b706d3a	0.0036686198
192	0x3c8427c8	0.01613225
193	0x3e10ebd9	0.14152469
194	0xbed9283e	-0.42413515
195	0x3d79b446	0.060962938
196	0x3afbd033	0.0019211828
197	0xbecc953e	-0.39957613
198	0xbcbf72d8	-0.023370191
199	0x3a9a250e	0.0011760311
200	0xbe5e95a4	-0.21736771
201	0x3e9a955e	0.30192083
202	0x3e139599	0.14412536
203	0x3eb920c4	0.3615781
204	0xbe643553	-0.22285967
205	0xbe37be37	-0.17943655
206	0x3e6e2180	0.23254967
207	0xbecab394	-0.39590132
208	0x3d92a65c	0.07160637
209	0xbe1ba623	-0.15200095
210	0x3db61a6a	0.08891757
211	0xbd2df247	-0.04246738
212	0x3cd9f37b	0.026605358
213	0xbe93aa35	-0.28840795
214	0x3e478b44	0.1948672
215	0x3e43119e	0.19049689
216	0xbebf3db8	-0.37351775
217	0x3d7c3c9a	0.06158123
218	0x3e697b1d	0.2280087
219	0xbd9aa14d	-0.07550297
220	0xbe55a750	-0.20864606
221	0x3c68279c	0.0141696
222	0xbee1d37e	-0.44106668
223	0x3b5a0498	0.0033266898
224	0xbe591167	-0.21198045
225	0x3ed7b856	0.42132825
226	0x3e343eaf	0.17602037
227	0xbe710af0	-0.23539329
228	0xbdac82d6	-0.084233925
229	0xbdb18e1b	-0.086696826
230	0x3e761fe3	0.24035601
231	0x3e7f6cf7	0.2494391
232	0xbeac180c	-0.33612096
233	0xbd57f7e2	-0.052726634
234	0xbd014b51	-0.031565968
235	0x3e766571	0.24062134
236	0xbe4cad9e	-0.19988105
237	0xbd88c465	-0.06678084
238	0xbb01dd76	-0.001981584
239	0x3e623db6	0.22093853
240	0x3ec01dfa	0.3752287
241	0xbe5715b9	-0.2100438
242	0xbe31174a	-0.1729404
243	0xbe902066	-0.28149718
244	0xbd9d5e33	-0.07683983
245	0x3e6f8001	0.23388673
246	0x3e058026	0.13037166
247	0x3da37c41	0.07982684
248	0xbe52cd40	-0.20586109
249	0xbbcd4790	-0.0062646344
250	0xbd56e88c	-0.052467868
251	0x3ed9aeb3	0.42516097

conv2d_2/Conv2D_bias f4 [28]
0	0xbe656670	-0.22402358
1	0xbdc3f0ba	-0.09567399
2	0xbe9feea5	-0.3123676
3	0xbece8bd1	-0.40341046
4	0xbf191d30	-0.5981016
5	0xbebd1c4c	-0.3693565
6	0xbea4ab57	-0.32161972
7	0xbe38b184	-0.18036467
8	0xbeebc6a7	-0.46049997
9	0xbebc5e39	-0.36790636
10	0xbea3763a	-0.31926137
11	0xbe84eed4	-0.2596346
12	0xbe9074dc	-0.28214157
13	0xbea188f8	-0.3154981
14	0xbea424d5	-0.3205935
15	0xbe3e8010	-0.1860354
16	0xbf04d453	-0.5188648
17	0xbe63666d	-0.22207041
18	0xbe545ce5	-0.20738561
19	0xbed0791c	-0.407174
20	0xbec76bc9	-0.3894942
21	0xbeea92ff	-0.45815274
22	0xbe486ff8	-0.19573963
23	0xbef46ae7	-0.4773781
24	0xbefbe148	-0.49195313
25	0xbe4ece45	-0.20195873
26	0xbed18206	-0.40919513
27	0xbf0b1d10	-0.5434122

conv2d_2/kernel f4 [28, 3, 3, 28]
0	0x3d630c6b	0.055431765
1	0xbd6fc2d8	-0.058535427
2	0xbe357193	-0.17719106
3	0x3e7aab35	0.24479373
4	0xbc26e120	-0.01018551
5	0xbd9ebd18	-0.077509105
6	0x3e140b8b	0.14457528
7	0x3d018fa8	0.031631142
8	0xbdac4fa5	-0.084136285
9	0x3d59b6a0	0.05315268
10	0xbd2e63c7	-0.042575624
11	0x3eace68c	0.33769643
12	0x3ec6a60d	0.38798562
13	0xbbd14231	-0.0063860645
14	0x3b02bd38	0.001994921
15	0xbd82b760	-0.06382632
16	0x3db9f1f5	0.09079353
17	0xbdec145e	-0.11527322
18	0x3e86e480	0.26346207
19	0x3f203c22	0.62591755
20	0xbdb83907	-0.08995252
21	0xbdef3c2b	-0.11681398
22	0x3dc8a533	0.09797134
23	0x3d4d69f6	0.05014988
24	0xbe11e4ee	-0.14247486
25	0x3efff92a	0.49994785
26	0x3e29e263	0.16590266
27	0xbe2336c3	-0.15938859
28	0xbdebdbe9	-0.11516554
29	0x3efca911	0.49347737
30	0x3e5a0846	0.21292219
31	0xbdc173b5	-0.094458975
32	0xbe06a3a5	-0.13148363
33	0x3e7fb5d8	0.24971712
34	0x3e196b45	0.14982326
35	0xbb25d970	-0.0025306605
36	0xbe918736	-0.2842347
37	0x3df057a0	0.11735463
38	0x3e5688c9	0.20950617
39	0xbcfe3b95	-0.03103427
40	0x3de73dea	0.11291106
41	0x3e652541	0.22377492
42	0xbe64691d	-0.22305723
43	0x3c2d2317	0.010567448
44	0xbde37731	-0.11106718
45	0xbd8e4eda	-0.069486335
46	0xbd502076	-0.050812207
47	0xbd021dc9	-0.031766687
48	0x3e2dfa40	0.16989994
49	0x3ee63c4e	0.44967884
50	0xbe021d07	-0.12706386
51	0x3ca81c03	0.02052117
52	0xbd888c59	-0.06667394
53	0xbe827f44	-0.2548772
54	0x3e3a8654	0.18215305
55	0xbe8b0fe0	-0.2716055
56	0xbe4e5e4c	-0.20153159
57	0x3eb5884c	0.3545555
58	0x3e6dbea2	0.23217252
59	0x3e2663bf	0.16248988
60	0xbe77cb86	-0.24198732
61	0xbe973205	-0.2953035
62	0x3c61612e	0.01375608
63	0xbeec973f	-0.46209142
64	0xbdce40ae	-0.100709304
65	0xbe50423f	-0.20337771
66	0x3e8c3ab5	0.2738854
67	0xbdf7c7a7	-0.120986275
68	0xbd616036	-0.055023395
69	0xbe7ea7af	-0.24868654
70	0xbe1fa571	-0.15590455
71	0xbdae9742	-0.08524944
72	0x3e517dd3	0.20458154
73	0xbe5fe9c5	-0.2186652
74	0x3e1edec7	0.1551467
75	0xbe94ea9d	-0.29085246
76	0xbe2c880b	-0.16848771
77	0x3ebd387c	0.36957157
78	0x3e127220	0.14301348
79	0xbd0b4ce6	-0.034008883
80	0xbbd150af	-0.006387792
81	0xbeb3b273	-0.35097083
82	0x3b4aab8e	0.0030925008
83	0xbe74d41a	-0.23909035
84	0x3e97f1d5	0.2967669
85	0xbd5e4f69	-0.05427495
86	0xbcf80b34	-0.03027878
87	0x3e0f4761	0.13992073
88	0xbde680da	-0.11255045
89	0x3e8c6159	0.2741802
90	0x3d83c905	0.06434826
91	0x3dc866d4	0.09785238
92	0x3e1dc391	0.15406634
93	0x3ec5d2ff	0.3863754
94	0xbeac6377	-0.33669636
95	0x3e8d5257	0.27601883
96	0xbc881f69	-0.01661654
97	0xbd966857	-0.0734412
98	0xbe23e297	-0.16004406
99	0xbd48ecf8	-0.049054116
100	0x3dc16298	0.094426334
101	0xbe55d8f4	-0.20883542
102	0xbe2f5c4c	-0.17125052
103	0x3f2a9839	0.66638523
104	0x3e090d4a	0.13383976
105	0xbe178f5c	-0.14800781
106	0xbdf09fc8	-0.11749226
107	0x3e333e63	0.17504267
108	0x3e2effdb	0.17089789
109	0xbb3f3e9b	-0.0029181603
110	0xbdece46c	-0.115670055
111	0xbd61ff73	-0.055175256
112	0xbf264e2c	-0.6496303
113	0x3d3e428e	0.04645019
114	0xbeb54f31	-0.3541198
115	0xbee67382	-0.4501
116	0xbdc6033d	-0.096685864
117	0x3df72f50	0.12069571
118	0x3d804c6c	0.06264576
119	0x3d7227b8	0.05911991
120	0xbe43d662	-0.1912475
121	0xbe65ec26	-0.22453365
122	0x3e7210c7	0.23639213
123	0xbdd6fa52	-0.104969636
124	0xbea71723	-0.3263484
125	0xbb9bf5a9	-0.0047595096
126	0xbe830f55	-0.25597635
127	0xbe710a5a	-0.23539105
128	0xbe9d4eb6	-0.30724114
129	0xbf06df2a	-0.5268427
130	0xbd7d4d09	-0.061841045
131	0xbd09003d	-0.033447493
132	0xbe8fc23b	-0.28077874
133	0x3ddfbe7b	0.10925003
134	0xbe468052	-0.19384888
135	0xbe193e4f	-0.14965175
136	0xbf030950	-0.51186085
137	0x3de44f48	0.11147934
138	0x3e1b451e	0.15163085
139	0xbd54ce50	-0.051954567
140	0xbeaa58a2	-0.33270746
141	0x3ef3fcd0	0.47653818
142	0xbdf6fb97	-0.12059706
143	0xbdecea83	-0.11568167
144	0xbe0b6eae	-0.1361644
145	0xbe7bfa22	-0.24607137
146	0xbdd9ea51	-0.106403954
147	0xbe55c1b4	-0.20874673
148	0x3e474d7c	0.19463152
149	0xbd924530	-0.07142103
150	0x3e76d3b7	0.241042
151	0xbc2ef9b5	-0.010679652
152	0xbd890032	-0.066894904
153	0xbe9a38a2	-0.30121332
154	0x3e189b38	0.14902961
155	0xbe46bb5d	-0.19407411
156	0x3e999934	0.29999697
157	0xbe5b0d11	-0.21391703
158	0x3e73b2d8	0.23798692
159	0xbd47b2b9	-0.048754428
160	0x3ccf7463	0.025324052
161	0x3f2254cf	0.6341066
162	0x3e73f630	0.23824382
163	0x3ec2af96	0.38024586
164	0xbe3e1b90	-0.18565202
165	0xbe4792a6	-0.19489536
166	0xbe162f9a	-0.14666596
167	0xbd90f01d	-0.07077048
168	0xbed16ea8	-0.40904737
169	0x3c038089	0.008026251
170	0x3da8b4ec	0.08237633
171	0xbd97d7ef	-0.07414233
172	0x3e35ccf4	0.17753965
173	0x3eb28261	0.34865096
174	0xbea84ebd	-0.32872573
175	0x3e8c1415	0.2735907
176	0xbe59598c	-0.21225566
177	0x3e02394a	0.12717167
178	0xbe546d54	-0.2074483
179	0x3e249149	0.16071047
180	0x3da48d0c	0.08034715
181	0xbd489568	-0.04897061
182	0xbe72494b	-0.23660772
183	0x3df87c2a	0.121330574
184	0x3eb0a500	0.34500885
185	0x3e43a218	0.19104803
186	0xbdcdf297	-0.10056036
187	0xbdf90c4b	-0.12160548
188	0x3eac83c3	0.33694276
189	0xbd7fb26f	-0.062426027
190	0x3e8daf32	0.27672726
191	0xbe846e8e	-0.25865597
192	0xbd0c826d	-0.03430407
193	0xbde6b7f5	-0.11265556
194	0xbe14fc73	-0.14549427
195	0xbe472645	-0.19448192
196	0xbe6873d3	-0.22700433
197	0xbd1ebba5	-0.03875317
198	0xbe58fa13	-0.21189146
199	0xbe270c64	-0.1631332
200	0xbd1c1194	-0.0381027
201	0xbce39f76	-0.027785998
202	0x3e28a243	0.16468148
203	0x3e40a528	0.18813002
204	0xbe66dfbc	-0.22546285
205	0x3e2876d4	0.1645158
206	0xbe2676fd	-0.16256328
207	0x3d84a85e	0.06477426
208	0x3d89591e	0.06706451
209	0xbd52e2de	-0.05148589
210	0xbd557c6e	-0.05212062
211	0xbf09d7f5	-0.5384515
212	0xbc8679b8	-0.016415462
213	0xbd2fb19b	-0.042893987
214	0xbe8650cb	-0.26233515
215	0x3ebef3f2	0.3729549
216	0xbee29128	-0.4425137
217	0x3dc0aba0	0.09407735
218	0xbdc4bb32	-0.09606017
219	0x3dd8a17b	0.10577675
220	0xbe20b9a0	-0.1569581
221	0x3dd9df66	0.10638313
222	0x3eecc3d0	0.46243143
223	0xbe8a59d1	-0.2702165
224	0x3dbc2f1d	0.09188674
225	0x3f1ba979	0.6080547
226	0x3e85beec	0.26122224
227	0x3d21a683	0.03946544
228	0xbeac5472	-0.33658177
229	0xbf0ba6e8	-0.54551554
230	0x3dd2b481	0.10288335
231	0xbea49be6	-0.3215019
232	0x3e9f83d8	0.31155276
233	0xbed133a3	-0.40859708
234	0x3e36749b	0.17817919
235	0x3d95fe5d	0.073239066
236	0x3dac29f8	0.084064424
237	0xbe815c0c	-0.2526554
238	0xbe143d7e	-0.14476582
239	0xbc890d74	-0.016730048
240	0x3e55fc25	0.20896967
241	0xbed01362	-0.40639788
242	0x3eadd349	0.3395026
243	0xbd22296d	-0.039590288
244	0xbc47b772	-0.012189733
245	0x3f09fd50	0.5390215
246	0x3cc69349	0.024240153
247	0x3e8bcddf	0.27305505
248	0xbbe13f52	-0.0068740034
249	0xbdc576f9	-0.09641833
250	0xbe3f6fcf	-0.18694995
251	0x3eb650e9	0.35608605
252	0xbf0c3f45	-0.5478404
253	0xbdbcaf4b	-0.09213122
254	0xbda6a5b8	-0.08137077
255	0xbca64327	-0.020295693

conv2d_3/Conv2D_bias f4 [28]
0	0xbe754827	-0.23953305
1	0xbf0bc40b	-0.5459601
2	0xbc2b7671	-0.01046525
3	0xbeaa0161	-0.33204177
4	0xbe742cec	-0.23845261
5	0xbe356a5b	-0.17716353
6	0xbd65d0b4	-0.056107238
7	0xbf24e42f	-0.6441068
8	0x3d960623	0.07325389
9	0xbf01b7b6	-0.50670946
10	0xbdddcb12	-0.10829748
11	0xbde02156	-0.10943858
12	0xbe9cbf4e	-0.30614704
13	0xbd1dcf6a	-0.038527884
14	0x3be338f2	0.0069342786
15	0xbe860a17	-0.26179573
16	0xbebccb59	-0.36873892
17	0xbec8135c	-0.3907727
18	0xbe75550e	-0.23958227
19	0xbf561221	-0.8362141
20	0xbe9609cf	-0.29304358
21	0xbe50c308	-0.20386899
22	0xbdb1577a	-0.08659263
23	0xbdd875d5	-0.1056935
24	0xbec48c3b	-0.38388237
25	0x3dcf12c7	0.10111003
26	0x3dd07300	0.101781845
27	0xbf37ea2f	-0.7184171

conv2d_3/kernel f4 [28, 3, 3, 28]
0	0x3d2b6615	0.0418454
1	0xbd40313a	-0.046921946
2	0xbda518fc	-0.08061406
3	0x3d0fbf69	0.035094652
4	0x3e0751b0	0.13214755
5	0x3e813a1c	0.25239646
6	0xbef99ea9	-0.4875386
7	0x3e85ba37	0.26118633
8	0x3d877cea	0.06615622
9	0xbdc0a6a7	-0.094067864
10	0xbec0f942	-0.3769017
11	0xbeb846b3	-0.3599144
12	0x3ea97733	0.33098754
13	0x3cd40829	0.025882797
14	0x3eb8ee12	0.36119133
15	0x3e2da0e1	0.16955902
16	0xbea18a3b	-0.31550774
17	0x3e07b5b9	0.13252915
18	0xbe8d39ed	-0.27583256
19	0xbe33ea84	-0.1756993
20	0xbd8cc347	-0.06873184
21	0xbe05d9c8	-0.13071358
22	0xbed5d931	-0.41767266
23	0x3e5b824b	0.21436422
24	0xbcfdafa8	-0.030967548
25	0x3c66f9f6	0.014097681
26	0x3cbeb71d	0.023280675
27	0x3e4dce4b	0.20098226
28	0x3ec399e7	0.38203356
29	0x3ccb1064	0.02478809
30	0x3eaf2e11	0.34214833
31	0x3c22a83e	0.009927807
32	0x3e054702	0.13015369
33	0xbb2245c3	-0.002476082
34	0xbe261457	-0.16218697
35	0x3e3beb7f	0.18351553
36	0x3dfd6bf5	0.12374107
37	0xbdf23efd	-0.1182842
38	0xbe87e0f2	-0.26538807
39	0x3eb3173c	0.34978664
40	0xbeae46f0	-0.34038496
41	0x3da8fd13	0.08251395
42	0x3e325567	0.17415391
43	0xbcdc5bfc	-0.02689933
44	0xbe4c0c1b	-0.19926493
45	0xbe88d0bc	-0.26721752
46	0x3cafcc73	0.021459794
47	0x3f32c282	0.69828045
48	0xbe262f46	-0.16228971
49	0x3e360650	0.17775846
50	0xbdac01c6	-0.08398776
51	0x3e795825	0.2435003
52	0xbc3a534a	-0.011372397
53	0x3d8ec6b4	0.06971493
54	0xbe9c5715	-0.30535188
55	0x3ec73cd1	0.38913587
56	0xbe159226	-0.14606532
57	0x3e2f5efa	0.17126074
58	0x3e017b79	0.12644757
59	0xbd417704	-0.047232643
60	0xbc9c9f19	-0.019118832
61	0xbe80892b	-0.2510465
62	0x3c90749a	0.017633725
63	0x3ae39473	0.0017362967
64	0x3e6d4145	0.2316943
65	0xbec70da0	-0.38877583
66	0xbd5dcf9f	-0.05415308
67	0x3dbac3fc	0.09119412
68	0xbe792f48	-0.24334443
69	0x3f1e7255	0.61893207
70	0x3eb6be3d	0.35692015
71	0xbe6bf8a5	-0.23044069
72	0xbf15c470	-0.58502865
73	0xbeabd40c	-0.33560216
74	0xbdc2305d	-0.09481881
75	0x3eb6fdaa	0.35740405
76	0xbdbc3f41	-0.09191752
77	0x3df6dda6	0.12053995
78	0xbdcc4023	-0.099731706
79	0x3dbbb01f	0.09164452
80	0xbda18d88	-0.07888323
81	0x3e45c95e	0.19315097
82	0x3e83560f	0.25651595
83	0x3debe825	0.115188874
84	0x3e082a2e	0.1329734
85	0xbdc48e13	-0.09597411
86	0x3ea26676	0.31718796
87	0x3e0b621c	0.13611645
88	0x3f0bcbf7	0.546081
89	0x3f1f922d	0.6233242
90	0xbc90f988	-0.01769711
91	0xbec3534c	-0.38149488
92	0xbde17118	-0.11007899
93	0xbe2936ec	-0.16524857
94	0xbeeadf28	-0.4587338
95	0xbe83b1ac	-0.2572149
96	0x3e200650	0.15627408
97	0xbe94ea12	-0.2908483
98	0x3dae1ac7	0.08501201
99	0x3ea76fb8	0.32702422
100	0xbe69b803	-0.22824101
101	0x3e20aec9	0.15691675
102	0x3e8493a7	0.258939
103	0xbe922bc5	-0.28549019
104	0xbe533d3b	-0.20628826
105	0xbef69981	-0.4816399
106	0xbca43c1b	-0.020048192
107	0xbf056362	-0.5210477
108	0x3e689797	0.22714077
109	0x3e90847e	0.28226084
110	0x3ea9bb4f	0.33150718
111	0x3e587b37	0.21140753
112	0xbd087667	-0.033316042
113	0xbe8a8716	-0.27056187
114	0xbe7181a6	-0.23584613
115	0xbd7ecc0d	-0.062206317
116	0x3be99f54	0.007129589
117	0xbe7909b3	-0.24320106
118	0x3cec940d	0.02887919
119	0x3d1e8db1	0.038709346
120	0xbdee4f62	-0.11636235
121	0xbe6063e9	-0.21913113
122	0xbdc17a92	-0.094472066
123	0x3e3bd8d8	0.18344438
124	0xbcd49ce6	-0.025953721
125	0xbeae8cb8	-0.34091735
126	0x3ebb54de	0.36588186
127	0x3ebec2d3	0.37258014
128	0xbeaab971	-0.33344606
129	0x3e30615e	0.17224643
130	0xbe60f6c8	-0.2196914
131	0xbda4e9a2	-0.080523744
132	0xbe2485bc	-0.1606664
133	0x3b307e61	0.0026930796
134	0xbeb58677	-0.3545415
135	0x3dbc15d0	0.09183848
136	0xbe5a1495	-0.21296914
137	0xbeff4971	-0.4986072
138	0xbdaecc4f	-0.085350625
139	0xbd6a8064	-0.05725135
140	0xbe1c4220	-0.152596
141	0x3d9aaba9	0.07552273
142	0xbeb3d02d	-0.35119763
143	0x3e4be5df	0.19911908
144	0xbe4445a9	-0.19167198
145	0xbe8ae294	-0.2712599
146	0xbe155ea9	-0.14586891
147	0xbe28e9c9	-0.16495432
148	0x3eb0ea27	0.34553644
149	0xbe8bd050	-0.27307367
150	0xbc253772	-0.01008402
151	0x3d465aa5	0.04842629
152	0x3db534b6	0.088479444
153	0xbebe9ed9	-0.37230566
154	0x3e4273b7	0.18989454
155	0xbd2d4c26	-0.04230895
156	0x3e52af88	0.20574772
157	0xbeb54de9	-0.35411003
158	0x3d2ea409	0.042636905
159	0xbe81b3a5	-0.2533237
160	0x3ecb4660	0.3970213
161	0xbedccab7	-0.4312341
162	0xbe85e3b3	-0.26150283
163	0x3eb4e545	0.3533117
164	0x3ede9ad9	0.43477514
165	0xbecef3ea	-0.40420467
166	0x3d0bdf99	0.034148786
167	0x3ebdadfb	0.370468
168	0xbdea7195	-0.11447445
169	0xbea53e88	-0.3227427
170	0xbe3ff53c	-0.18745893
171	0x3e806f24	0.25084794
172	0xbd0b77b0	-0.03404969
173	0x3f27c9bb	0.6554219
174	0x3ecabf50	0.39599085
175	0xbe505657	-0.20345436
176	0xbf14db36	-0.5814699
177	0x3edb92fd	0.4288558
178	0xbf2819eb	-0.6566455
179	0xbe40deb9	-0.18834962
180	0x3e678845	0.22610576
181	0xbeda28f1	-0.4260936
182	0xbe95635a	-0.29177362
183	0xbf031976	-0.51210725
184	0x3ed806b8	0.42192626
185	0x3ee409c8	0.44538713
186	0x3e5233fa	0.2052764
187	0xbe0b7d03	-0.13621907
188	0x3b3c1d18	0.0028703865
189	0xbf014dc8	-0.5050931
190	0x3eb5ea67	0.35530397
191	0x3c99d99b	0.01878052
192	0x3e8c47d6	0.27398556
193	0xbe992618	-0.29911876
194	0xbda826c0	-0.08210516
195	0xbe12bba4	-0.14329392
196	0xbe170aa9	-0.1475016
197	0xbeab688b	-0.33478197
198	0xbd025f48	-0.03182915
199	0x3eb1adf2	0.34703022
200	0xbe650cc5	-0.22368152
201	0x3d044165	0.032288928
202	0x3da0393b	0.07823416
203	0xbf35eafd	-0.7106169
204	0x3e4def60	0.20110846
205	0x3efe3d3f	0.49656102
206	0x3f1d897e	0.6153792
207	0x3e297374	0.16547948
208	0x3de6dd5e	0.11272691
209	0x3eae2bbd	0.34017745
210	0xbde4b3f6	-0.11167137
211	0xbe33bba8	-0.17552054
212	0x3f06074a	0.5235487
213	0x3d9e6b9c	0.077353686
214	0x3b956601	0.004559279
215	0x3c9f2d2c	0.01943072
216	0x3f293f12	0.6611186
217	0x3e200993	0.15628652
218	0xbd3557bc	-0.044273123
219	0x3de656ac	0.11247
220	0x3ddb2e8d	0.10702238
221	0xbeb84042	-0.35986525
222	0x3d2544d1	0.04034883
223	0xbd92b242	-0.07162906
224	0xbe734eaf	-0.23760484
225	0xbf0b5438	-0.5442538
226	0x3e2e8b21	0.17045261
227	0xbe8c4c3e	-0.27401918
228	0x3edfb3b4	0.4369179
229	0x3dc9d0dc	0.0985429
230	0x3d3e23dd	0.04642092
231	0x3f2111f9	0.6291805
232	0xbdacb7df	-0.08433508
233	0x3e2c3324	0.16816384
234	0x3dd9563a	0.106121495
235	0x3e6b9f42	0.23009971
236	0x3e00b3c1	0.1256857
237	0x3c352d85	0.011058216
238	0x3deb5e46	0.114925906
239	0x3daa7c26	0.08324461
240	0x3e3f472d	0.18679495
241	0x3f1e28a4	0.6178076
242	0xbe0fcc96	-0.14042887
243	0xbdc5aedc	-0.096524924
244	0xbe0d95c6	-0.13826665
245	0x3df8d530	0.12150037
246	0xbe792cf3	-0.24333553
247	0x3e9be2a2	0.30446345
248	0xbe586c29	-0.2113501
249	0xbe807e7c	-0.250965
250	0x3dae4647	0.08509498
251	0xbe3963f8	-0.18104541
252	0x3d7aefa6	0.061263703
253	0xbe4220be	-0.18957803
254	0xbe4da943	-0.200841
255	0x3eb30828	0.3496716

dense_1/MatMul_bias f4 [128]
0	0xbe98f02c	-0.29870737
1	0xbe75ab15	-0.23991044
2	0xbef58bc5	-0.47958198
3	0xbec3f075	-0.38269392
4	0xbe3a8887	-0.18216144
5	0xbecd7d92	-0.40134865
6	0xbf057130	-0.52125835
7	0xbeb5de73	-0.35521278
8	0xbe99b670	-0.30022
9	0xbdbabe71	-0.09118355
10	0xbed82bbc	-0.42220867
11	0xbdcc42bc	-0.09973666
12	0xbe4889b0	-0.19583774
13	0xbe5436f3	-0.20724086
14	0xbe3afef0	-0.18261313
15	0x3bad48ce	0.00528822
16	0xbe9afb60	-0.3026991
17	0xbd2d600b	-0.04232792
18	0xbe3df43f	-0.18550204
19	0xbe3f377d	-0.18673511
20	0xbeb4fd27	-0.3534939
21	0xbec5e942	-0.38654524
22	0xbe3fd9cd	-0.18735428
23	0xbf0b0510	-0.543046
24	0xbec29e64	-0.38011467
25	0xbe67dd8d	-0.22643109
26	0xbefc2b72	-0.49251896
27	0xbe850c97	-0.25986168
28	0xbe94fda8	-0.29099774
29	0xbf21f821	-0.6326924
30	0xbed2935b	-0.41128048
31	0xbe61dbb8	-0.22056472
32	0xbe12f5b9	-0.14351548
33	0xbeb03a03	-0.3441926
34	0xbe074210	-0.13208795
35	0xbe6bc565	-0.23024519
36	0xbeaf2ebc	-0.34215343
37	0xbf215c08	-0.63031054
38	0xbdffd0ba	-0.12490983
39	0xbeabb05a	-0.33532983
40	0xbdaa240f	-0.08307659
41	0xbe2df42c	-0.16987675
42	0xbe5ff83a	-0.21872035
43	0x3e055bb0	0.13023257
44	0xbeb13b56	-0.34615582
45	0xbe4dcad8	-0.2009691
46	0xbe940a82	-0.28914267
47	0xbe4515ef	-0.19246648
48	0x3cbfa888	0.023395792
49	0xbe5d0181	-0.21582605
50	0xbda48621	-0.080333956
51	0xbe246e2c	-0.16057652
52	0xbeea70e8	-0.45789266
53	0xbe800e0e	-0.25010723
54	0xbf068788	-0.52550554
55	0xbd43318a	-0.047654666
56	0xbeaeb2d3	-0.34120807
57	0xbdf847df	-0.12123083
58	0xbcc97493	-0.02459172
59	0xbeb8c915	-0.36090913
60	0xbe69440a	-0.22779861
61	0xbee05030	-0.43811178
62	0xbe0e4c6a	-0.13896337
63	0xbed8f507	-0.4237444
64	0xbe76786c	-0.24069375
65	0xbe2198ed	-0.15780993
66	0xbe50c40e	-0.20387289
67	0xbef5bc3f	-0.47995183
68	0xbe30c886	-0.17263994
69	0xbe441dc3	-0.19151978
70	0xbf2c3f4e	-0.67284095
71	0xbd9e7471	-0.07737053
72	0xbe83b56f	-0.2572436
73	0xbeddf333	-0.4334961
74	0xbefb7733	-0.4911438
75	0xbeaaf101	-0.33386996
76	0xbdb91d8e	-0.0903884
77	0xbf1dadd7	-0.61593384
78	0xbe84b18b	-0.25916705
79	0xbdc5e46a	-0.09662707
80	0xbdf978ff	-0.12181281
81	0xbd8361a9	-0.064151116
82	0xbec8d9c0	-0.3922863
83	0xbee7c15e	-0.45264715
84	0xbec5387e	-0.38519663
85	0xbe8555a5	-0.26041904
86	0xbece96fb	-0.40349564
87	0xbe7aee0c	-0.2450487
88	0xbf1248de	-0.57142437
89	0xbee2a45d	-0.44266024
90	0xbf20ef71	-0.6286536
91	0xbe1abfd8	-0.15112245
92	0xbe827208	-0.25477624
93	0xbe814844	-0.25250447
94	0xbed34298	-0.41261744
95	0xbe9cbe86	-0.30614108
96	0xbe3bba73	-0.18332843
97	0xbe3bbbd5	-0.18333371
98	0xbe8e0c1b	-0.2774361
99	0xbec7bc83	-0.3901101
100	0xbec1a734	-0.37822878
101	0x3c9d1052	0.019172821
102	0x3c621b86	0.013800507
103	0xbeae0ec7	-0.3399565
104	0xbebad94c	-0.3649391
105	0xbf0c6fe5	-0.5485824
106	0xbf00b33d	-0.50273496
107	0xbea4e34d	-0.32204667
108	0xbedf0a97	-0.43562767
109	0x3d9f177c	0.07768151
110	0xbd27e02a	-0.040985264
111	0xbe23b3d1	-0.15986563
112	0xbee993c2	-0.45620543
113	0xbe6715c8	-0.22566903
114	0xba274e8d	-0.00063822494
115	0x3c20e769	0.0098207975
116	0xbec151dc	-0.37757766
117	0xbc451243	-0.01202828
118	0xbebf9462	-0.37417895
119	0xbe226a4b	-0.1586086
120	0xbee90e41	-0.45518687
121	0x3c88b77a	0.016689051
122	0xbf0292b8	-0.51005125
123	0xbe7e45ec	-0.2483136
124	0xbf2182dc	-0.630903
125	0xbea4f88f	-0.32220885
126	0xbea6c136	-0.32569283
127	0xbe320810	-0.17385888

dense_1/kernel/transpose f4 [128, 28]
0	0xbd818d42	-0.06325771
1	0xbf2d1e1c	-0.6762407
2	0xbd8520ea	-0.065004185
3	0xbe04e573	-0.12978153
4	0x3dd7849c	0.1052334
5	0x3e68b37b	0.22724716
6	0x3e32914d	0.1743824
7	0x3ecd45e0	0.40092373
8	0x3e4d17bf	0.2002859
9	0x3de5d36a	0.11221965
10	0xbe1b8621	-0.15187885
11	0xbef24b48	-0.4732306
12	0xbda30561	-0.0796001
13	0x3eb541e4	0.35401833
14	0xbd971826	-0.07377653
15	0x3ddf29c4	0.10896638
16	0xbea3d36d	-0.31997243
17	0x3deb84db	0.114999495
18	0x3dd44cca	0.10366209
19	0x3e1c8f5a	0.1528906
20	0xbd92584c	-0.071457475
21	0x3df7ac17	0.120933704
22	0x3cf70b2e	0.030156698
23	0xbee76413	-0.45193538
24	0x3e578e1d	0.21050306
25	0xbee0dca4	-0.43918335
26	0x3d9d755a	0.07688399
27	0xbe2c3ae5	-0.16819341
28	0x3de98693	0.11402621
29	0xbe0df3b3	-0.13862495
30	0xbeb10eb6	-0.34581536
31	0xbdb82f4e	-0.08993398
32	0x3ea227b4	0.31670916
33	0xbf07c305	-0.5303195
34	0xbf1afdc0	-0.6054344
35	0x3e4e28e2	0.20132783
36	0xbbddc87c	-0.0067682844
37	0x3db34bfa	0.08754726
38	0xbe8935ab	-0.26798758
39	0x3e149cd3	0.14512949
40	0xbe86f240	-0.26356697
41	0xbe18779a	-0.14889374
42	0xbd3ca491	-0.04605538
43	0xbe065e05	-0.13121803
44	0x3f02b6c9	0.5106016
45	0x3dd974e2	0.10617997
46	0x3ea60972	0.3242908
47	0xbe000e78	-0.1250552
48	0xbf38300d	-0.7194832
49	0x3dccf293	0.10007205
50	0xbe7d00ca	-0.24707332
51	0xbea1d92b	-0.31611
52	0x3e299563	0.16560893
53	0x3e6ba206	0.23011026
54	0x3e238aa3	0.15970854
55	0x3de86996	0.11348264
56	0xbe8f89a5	-0.28034702
57	0x3e1faf18	0.15594137
58	0xbd817629	-0.063213654
59	0xbd733cd8	-0.059384197
60	0xbf076a98	-0.52897024
61	0xbd13b01f	-0.036056634
62	0x3f00be5e	0.5029048
63	0xbde09a17	-0.1096689
64	0xbd11f343	-0.035632383
65	0xbdd5508d	-0.104157545
66	0xbe1b4730	-0.15163875
67	0xbd9bbd35	-0.07604448
68	0xbd0d9ae4	-0.034571543
69	0x3d5c31e3	0.053758513
70	0xbd2dcc0c	-0.042430922
71	0x3e24c48e	0.16090605
72	0x3eb5b8d6	0.3549258
73	0xbdba71f6	-0.091037676
74	0xbeb6399a	-0.35590822
75	0xbdfb5429	-0.12271912
76	0x3e8975e6	0.26847762
77	0x3de1af82	0.110198036
78	0x3ca52b4d	0.020162249
79	0xbd249dcf	-0.04018956
80	0x3e2118ee	0.15732166
81	0xbe67dccd	-0.22642823
82	0xbd9368f6	-0.07197754
83	0xbe1d21cb	-0.15344922
84	0x3f0da86a	0.55335104
85	0x3d6eacf7	0.05827042
86	0xbd9b0866	-0.07569961
87	0x3e449dba	0.19200793
88	0x3d176f6f	0.036971506
89	0xbd1796fb	-0.03700922
90	0xbea05bd1	-0.3132005
91	0x3ebb3c64	0.36569512
92	0xbe632061	-0.2218032
93	0x3e34588b	0.17611901
94	0xbdc1bcde	-0.09459852
95	0xbe742692	-0.23842838
96	0x3db02215	0.08600251
97	0x3e73347b	0.23750488
98	0x3e530874	0.20608693
99	0xbe03aa38	-0.12857902
100	0xbebd8655	-0.3701655
101	0xbe40f88f	-0.18844818
102	0x3e79e59c	0.24403995
103	0xbe16717d	-0.1469173
104	0x3df636c1	0.12022162
105	0xbc3641af	-0.011124059
106	0x3ea22ede	0.31676382
107	0x3d295ccf	0.041348275
108	0x3bb4912c	0.00551047
109	0xbea1a5ad	-0.31571713
110	0x3e4c71c0	0.19965267
111	0x3e8ab55b	0.27091488
112	0x3e7ef433	0.24897842
113	0x3dea0c78	0.114281595
114	0x3d5803e3	0.05273808
115	0x3e62c201	0.22144319
116	0xbce10ee0	-0.027472913
117	0xbee923f2	-0.45535237
118	0xbf0b23b7	-0.5435137
119	0x3d6d6ce6	0.05796518
120	0xbf099a2d	-0.5375088
121	0xbe68c0f6	-0.22729859
122	0xbe471a71	-0.1944368
123	0xbd94e29f	-0.07269787
124	0x3e60376f	0.21896146
125	0x3e1a6ff6	0.15081772
126	0xbe1e55d4	-0.15462428
127	0x3d81dc0b	0.06340798
128	0xbe22c53f	-0.15895556
129	0x3e9dc23b	0.3081225
130	0xbe53afc0	-0.20672512
131	0xbe674721	-0.22585727
132	0x3e8a3e24	0.27000535
133	0x3ecb07bf	0.39654347
134	0x3e6c86bd	0.23098274
135	0xbe122fba	-0.14276019
136	0xbf09b80e	-0.5379647
137	0xbe5e2712	-0.21694592
138	0xbe98a0c7	-0.29810163
139	0xbe2dc9ae	-0.16971466
140	0x3df43bce	0.11925469
141	0x3eab756e	0.3348803
142	0xbe2a807e	-0.16650578
143	0x3ec3c129	0.38233307
144	0xbe63c8a2	-0.22244504
145	0xbd610624	-0.054937497
146	0xbea8d3ed	-0.32974187
147	0x3ea97b03	0.33101663
148	0xbe260926	-0.16214427
149	0xbd02ed42	-0.031964548
150	0xbebfcfeb	-0.37463316
151	0xbe8ed038	-0.27893233
152	0x3db60b34	0.088888556
153	0xbea659c5	-0.32490364
154	0xbd7bcf1e	-0.06147682
155	0xbe5d3e7e	-0.2160587
156	0xbe21f502	-0.1581612
157	0xbdcc4287	-0.099736266
158	0xbe318a9f	-0.17338036
159	0x3e9d418b	0.30714068
160	0x3dd19f77	0.10235494
161	0xbe8414a9	-0.25797012
162	0xbe2b4389	-0.16724981
163	0x3e9d2648	0.3069327
164	0x3d8a59a8	0.06755382
165	0x3d61c9ec	0.05512421
166	0xbec16d07	-0.37778494
167	0xbe1b2c2b	-0.15153567
168	0x3d757158	0.059922546
169	0xbe7e427e	-0.24830052
170	0x3e673d09	0.22581877
171	0xbe94f949	-0.2909644
172	0xbe875fee	-0.26440376
173	0x3db372a7	0.087621026
174	0x3d802f3e	0.06259011
175	0x3ee52feb	0.4476312
176	0x3cf4e8d9	0.029896187
177	0x3e78da78	0.24302089
178	0xbce606ab	-0.028079351
179	0xbe90344e	-0.28164905
180	0x3d3e6668	0.04648438
181	0x3e63e84b	0.22256581
182	0xbc359555	-0.011082967
183	0xbcebbb9b	-0.02877598
184	0xbe9f4cc9	-0.3111327
185	0xbd6a69cd	-0.057229806
186	0x3dc90a89	0.098164625
187	0x3e97ec56	0.29672498
188	0x3e4b0e8b	0.19829766
189	0xbe9ebab5	-0.3100182
190	0x3e64fb2d	0.22361441
191	0xbedc3e62	-0.43016344
192	0x3e0ca4fc	0.13734812
193	0xbe9a9384	-0.3019067
194	0x3e964013	0.2934576
195	0xbdc94365	-0.098273076
196	0xbde7d681	-0.1132021
197	0xbe8ebbd3	-0.27877674
198	0xbdbe6d31	-0.0929817
199	0x3d67d2a5	0.05659737
200	0xbd982fca	-0.0743099
201	0xbee4586b	-0.44598708
202	0xbf149737	-0.58043236
203	0xbe746f81	-0.2387066
204	0xbec8bf50	-0.3920846
205	0x3e16f5be	0.1474218
206	0xbd99c13b	-0.07507559
207	0xbe47c9e0	-0.19510603
208	0x3e590c6f	0.2119615
209	0xbd177bd7	-0.036983337
210	0x3e950cbb	0.29111275
211	0xbe9fb84c	-0.31195295
212	0x3da11abd	0.07866428
213	0xbe861f78	-0.26195884
214	0xbe2667e2	-0.16250566
215	0xbdf0fe99	-0.11767311
216	0xbe58587d	-0.21127506
217	0x3ee18551	0.44047025
218	0xbe34f4ca	-0.17671505
219	0xbf0ee3f1	-0.5581656
220	0xbef62565	-0.48075405
221	0xbe501dc0	-0.20323849
222	0xbeb30a7b	-0.34968933
223	0x3b661b2c	0.003511141
224	0xbd109f1f	-0.035308
225	0x3e5e3bc8	0.21702492
226	0xbd9fa2e6	-0.07794742
227	0x3d8d30f9	0.068941064
228	0x3e622006	0.22082528
229	0xbe6c724c	-0.23090476
230	0xbe8b9a7e	-0.27266306
231	0xbd55a269	-0.05215684
232	0xbd951e8a	-0.072812155
233	0x3e24a061	0.16076805
234	0xbecdb722	-0.40178782
235	0xbe052a9a	-0.13004532
236	0xbe5282a7	-0.20557652
237	0xbe53cda2	-0.20683911
238	0x3eab2a63	0.33430776
239	0x3cd7cb71	0.026342126
240	0xbe9d6403	-0.30740365
241	0xbe4d7ad8	-0.20066392
242	0xbb1ddde3	-0.0024088554
243	0x3e746356	0.23866019
244	0xbd52c0b4	-0.051453307
245	0x3ec22d48	0.37925172
246	0xbe80858a	-0.25101882
247	0x3e5ea224	0.21741539
248	0x3e823f74	0.25439036
249	0x3e756fec	0.23968476
250	0xbec4d290	-0.38441896
251	0x3ee3d1e6	0.44496077
252	0xbe1dc8bc	-0.15408605
253	0x3e2292c2	0.15876296
254	0xbe19c8ec	-0.15018052
255	0x3d6e7bcc	0.05822353

dense_2/MatMul_bias f4 [10]
0	0x3e4943ee	0.1965482
1	0x3e97d725	0.2965633
2	0xbe45a02f	-0.19299386
3	0x3d6d6df8	0.057966202
4	0xbea1c717	-0.31597206
5	0xbe2660e7	-0.16247903
6	0xbea23f16	-0.31688756
7	0xbea9f2fd	-0.33193198
8	0x3efa48f8	0.48883796
9	0x3e28ed8b	0.16496865

dense_2/kernel/transpose f4 [10, 128]
0	0x3e076122	0.13220647
1	0x3d9a546d	0.07535634
2	0xbf22bdd4	-0.63570905
3	0x3db4b75a	0.08824034
4	0xbe97b8a8	-0.2963307
5	0xbf610bd7	-0.8790869
6	0x3e357ce3	0.17723422
7	0xbe8f23a1	-0.2795687
8	0xbccdf44a	-0.0251409
9	0xbf0750ac	-0.5285747
10	0xbd185212	-0.037187643
11	0x3d1ae713	0.037818026
12	0x3dd3d4a9	0.10343296
13	0xbe80984e	-0.251162
14	0xbd43a737	-0.04776689
15	0xbf4be979	-0.79653126
16	0xbfa3827b	-1.2774194
17	0xbe4535d6	-0.19258818
18	0xbf32369b	-0.6961457
19	0xbf1375ee	-0.5760182
20	0xbf1ca914	-0.6119549
21	0xbe694632	-0.22780684
22	0xbbd95477	-0.0066323834
23	0xbdfa9ff5	-0.12237541
24	0x3e409012	0.18804958
25	0x3dbe63a8	0.09296352
26	0xbd0fa82e	-0.035072498
27	0xbf0bd864	-0.5462706
28	0xbe933912	-0.2875448
29	0x3d874ed6	0.06606834
30	0xbe3ef98a	-0.18649879
31	0xbdbaf509	-0.09128768
32	0xbef4afa2	-0.47790247
33	0x3dad2b6a	0.08455546
34	0xbea96f5a	-0.33092767
35	0x3e25089c	0.16116565
36	0x3e1376a8	0.14400733
37	0x3de03768	0.10948068
38	0x3e5f135c	0.21784729
39	0xbf7f9327	-0.9983391
40	0xbf5075db	-0.81429833
41	0xbf50427c	-0.8135145
42	0xbee987eb	-0.4561151
43	0x3e0bce5d	0.1365294
44	0xbe1f5ca8	-0.1556269
45	0xbd83e0b6	-0.064393446
46	0xbf10c679	-0.56552845
47	0xbd394b2b	-0.0452377
48	0xbe965554	-0.29361975
49	0xbf20c7a3	-0.6280462
50	0xbf5e32b6	-0.8679613
51	0xbf1227bd	-0.57091886
52	0xbd62678c	-0.05527453
53	0xbe6b7bd1	-0.22996451
54	0xbf4599ce	-0.7718781
55	0x3e2a8cf7	0.16655336
56	0xbf00df12	-0.5034038
57	0xbee52c38	-0.447603
58	0x3e0c5c1c	0.13707012
59	0x3df48043	0.119385265
60	0x3dc23337	0.09482425
61	0xbce7ffb4	-0.028320171
62	0xbe35550b	-0.17708223
63	0x3ddbcddc	0.10732624
64	0xbeb727dc	-0.35772598
65	0xbe1f5c1c	-0.1556248
66	0xbe9f8a2b	-0.311601
67	0xbfaec263	-1.3653072
68	0xbd76091f	-0.060067292
69	0xbea29463	-0.31753835
70	0xbd4983dd	-0.04919802
71	0xbe35a749	-0.17739595
72	0xbe88225d	-0.26588717
73	0xbd182021	-0.037140016
74	0xbeced27e	-0.40394968
75	0xbfa26407	-1.2686776
76	0xbe343aa8	-0.176005
77	0x3db131e1	0.08652092
78	0xbe8ea4a7	-0.27859995
79	0x3e392d7e	0.1808376
80	0xbebedf23	-0.37279615
81	0x3d5df492	0.05418832
82	0x3d86d89e	0.06584285
83	0x3d239de4	0.039945498
84	0xbe011ce1	-0.12608673
85	0xbebb8f40	-0.3663273
86	0x3e0f9441	0.14021398
87	0xbdcd8e71	-0.10036934
88	0xbc81f5d4	-0.01586429
89	0x3c2d5e4c	0.010581564
90	0xbecaee99	-0.3963516
91	0xbc795521	-0.01521805
92	0xbf3ee1ce	-0.745633
93	0x3e739fd7	0.23791443
94	0xbf19ae2b	-0.60031384
95	0x3e4ad787	0.1980878
96	0xbe847c3a	-0.25876027
97	0xbd57729d	-0.052599538
98	0xbc0b03d2	-0.008484798
99	0xbef1929b	-0.47182164
100	0xbb993d31	-0.004676484
101	0xbf421429	-0.7581201
102	0xbe4840c5	-0.19555958
103	0xbc1fa1b3	-0.009743142
104	0x3c8deea1	0.017325701
105	0xbe1f70de	-0.15570399
106	0xbed76e85	-0.42076507
107	0xbe8086ed	-0.2510294
108	0xbf16fb79	-0.58977467
109	0xbf603026	-0.8757347
110	0x3db28916	0.08717553
111	0x3dfe8cb3	0.1242918
112	0x3d9dd060	0.0770576
113	0x3e2d9abb	0.16953556
114	0xbee3b881	-0.44476703
115	0x3e34a665	0.176416
116	0xbf09a48b	-0.537667
117	0xbe884f01	-0.26622775
118	0xbf3f37d7	-0.7469458
119	0xbe5b3111	-0.21405436
120	0xbde7abdb	-0.11312076
121	0x3dff6a85	0.12471489
122	0xbe1d5775	-0.15365393
123	0x3d551774	0.05202432
124	0x3d2cd336	0.042193614
125	0xbeb65ad6	-0.35616177
126	0xbedbf2c3	-0.4295865
127	0xbf294e25	-0.66134864
128	0xbd995a12	-0.07487883
129	0xbde93c28	-0.11388427
130	0xbda97bb1	-0.082755454
131	0xbf3ed11c	-0.74537826
132	0xbe3c48a9	-0.18387093
133	0xbed05c6c	-0.40695512
134	0xbe8e2c10	-0.27767992
135	0x3e8365ab	0.25663504
136	0xbebf4bf4	-0.37362635
137	0x3e376c76	0.17912468
138	0xbdbf0894	-0.09327808
139	0xbf302db8	-0.6881976
140	0x3de74b57	0.11293667
141	0xbe72e390	-0.2371962
142	0xbd7a211e	-0.06106674
143	0x3c8915a7	0.016733957
144	0x3bb88cad	0.0056320042
145	0xbdb5182a	-0.088424996
146	0xbe8fca35	-0.2808396
147	0x3e06f9d6	0.13181242
148	0xbf3df8f3	-0.7420799
149	0x3e0e358b	0.13887613
150	0xbda38a36	-0.07985346
151	0xbea46a3b	-0.32112297
152	0xbf5672ae	-0.8376874
153	0xbdde7283	-0.10861685
154	0xbf2dcaac	-0.6788738
155	0xbe3c2bd6	-0.18376097
156	0xbe14fb1c	-0.14548916
157	0xbed317e6	-0.4122917
158	0xbe759fc9	-0.23986734
159	0x3e6439af	0.2228763
160	0xbe711bd9	-0.2354578
161	0xbf3e2084	-0.74268365
162	0x3e742fe2	0.23846391
163	0x3cf2f3b8	0.02965723
164	0xbe02d387	-0.12776004
165	0xbe58e6b9	-0.21181764
166	0xbf05f0eb	-0.52320737
167	0xbddd6e5c	-0.10812065
168	0xbd98f0c4	-0.074677974
169	0xbd9c22e3	-0.076238416
170	0x3dcf078a	0.1010886
171	0x3d409561	0.04701746
172	0x3dbf1100	0.09329414
173	0xbde0e360	-0.10980868
174	0x3d8584f6	0.06519501
175	0x3e1385b6	0.14406475
176	0x3bf161ae	0.0073663807
177	0x3e228f08	0.15874875
178	0xbe17510d	-0.14777012
179	0x3dc9a938	0.09846729
180	0x3e231354	0.15925342
181	0x3daea44a	0.085274294
182	0xbcc7e62b	-0.024401745
183	0x3cc3fbab	0.023923716
184	0xbe59aad5	-0.21256573
185	0xbeea3b90	-0.45748568
186	0x3e009648	0.12557328
187	0x3c8dd79a	0.01731472
188	0xbe90f059	-0.2830837
189	0x3cdc07e3	0.02685923
190	0x3d938525	0.0720313
191	0xbe39a2e7	-0.18128549
192	0xbdacc780	-0.08436489
193	0x3d49004c	0.04907255
194	0xbd561bd0	-0.052272618
195	0x3e4e65f4	0.2015608
196	0xbee20e19	-0.4415138
197	0x3d3fc1db	0.046815734
198	0xbe8bc30b	-0.27297243
199	0xbf2056c4	-0.62632394
200	0xbecc5aae	-0.39912933
201	0xbdf13d64	-0.117792875
202	0xbdba0cdb	-0.09084483
203	0xbefde53a	-0.49588948
204	0x3e624c28	0.22099364
205	0xbdcc9055	-0.09988467
206	0xbd1914d5	-0.037373383
207	0xbeefe995	-0.46857896
208	0xbf0eaf36	-0.557361
209	0xbd06bcaf	-0.032894786
210	0x3ea984c5	0.33109108
211	0xbed29a3b	-0.41133294
212	0x3e0cbc05	0.13743599
213	0xbe658a26	-0.2241598
214	0xbf30c355	-0.69048053
215	0xbe668104	-0.22510153
216	0xbc9856e1	-0.018596115
217	0x3ce3cb5d	0.027806932
218	0xbdf1fe88	-0.11816126
219	0x3e292e15	0.16521485
220	0xbe7fadf3	-0.249687
221	0xbf936b11	-1.1517049
222	0xbe98260d	-0.2971653
223	0x3e78ee08	0.24309552
224	0x3e0ea04d	0.13928337
225	0x3e052d9f	0.13005684
226	0xbd86325c	-0.06552574
227	0x3d495666	0.04915466
228	0x3dd1386a	0.10215838
229	0xbe89b881	-0.26898578
230	0xbbe635f4	-0.0070254747
231	0xbdaa92e0	-0.083287954
232	0xbebac0b6	-0.36475152
233	0xbe079092	-0.13238743
234	0xbc98af88	-0.018638387
235	0xbf0d7763	-0.55260295
236	0xbebffdf3	-0.37498435
237	0x3e2d6461	0.16932823
238	0xbea24baf	-0.31698367
239	0xbf67775b	-0.90416497
240	0xbf317f6e	-0.6933507
241	0xbf0c72a5	-0.54862434
242	0x3e841b6c	0.2580217
243	0x3bc0778f	0.0058736275
244	0xbee22970	-0.4417224
245	0xbdced551	-0.100992806
246	0x3ca17b8e	0.019712236
247	0x3e37fa2b	0.17966525
248	0xbf14e865	-0.58167106
249	0x3dba266d	0.090893604
250	0xbf189637	-0.5960421
251	0xbf002e3d	-0.50070554
252	0xbdf22602	-0.11823656
253	0xbd9e5c52	-0.077324525
254	0xbd055557	-0.03255209
255	0x3d58116d	0.052750994
